models/duck.onnx (onnx, 302121 bytes, 16 tensors)

fc.weight f4 [2, 256]
0	0xbd9cf7d2	-0.076644555
1	0xbdbce19f	-0.09222721
2	0xbde2b98d	-0.11070547
3	0xbdfde6c2	-0.12397529
4	0xbe477d4f	-0.19481395
5	0xbe70d261	-0.23517753
6	0xbe1a9f44	-0.15099818
7	0xbe368324	-0.17823464
8	0xbe17847c	-0.14796633
9	0xbe070b78	-0.13187969
10	0xbdfe9a41	-0.12431765
11	0xbdc66fe4	-0.0968931
12	0x8535357d	-8.520403e-36
13	0x8535395d	-8.521115e-36
14	0x8534d3e8	-8.50248e-36
15	0x8534d995	-8.503523e-36
16	0x3e35e9a8	0.17764914
17	0x3e3e251c	0.18568844
18	0x3e2e6308	0.17029965
19	0x3e350d3a	0.17680827
20	0x3e10ead8	0.14152086
21	0x3e249a5f	0.16074513
22	0x3e064189	0.13110937
23	0x3e0ddf79	0.1385478
24	0x36943dfa	4.4179587e-06
25	0x36943dfa	4.4179587e-06
26	0x36943dfa	4.4179587e-06
27	0x36943dfa	4.4179587e-06
28	0x00001c54	1.0162e-41
29	0x000016c2	8.164e-42
30	0x00000c1d	4.345e-42
31	0x0000172a	8.31e-42
32	0x00140ed7	1.842033e-39
33	0x001410e7	1.842773e-39
34	0x0014115f	1.842941e-39
35	0x00140eca	1.842015e-39
36	0xbc8468ed	-0.016163314
37	0xbc4056db	-0.011739458
38	0x3ddebbf6	0.108756945
39	0x3de88e95	0.1135532
40	0x00001ed1	1.1055e-41
41	0x00001eb9	1.1021e-41
42	0x000019cd	9.256e-42
43	0x00000c8f	4.505e-42
44	0x80002039	-1.156e-41
45	0x8000206d	-1.1632e-41
46	0x80001d1f	-1.0447e-41
47	0x800020c7	-1.1758e-41
48	0x3c1db3a1	0.009625346
49	0x3c7494dc	0.014928069
50	0x3e8f1ea1	0.27953056
51	0x3e8c5041	0.2740498
52	0x3e3c5de4	0.18395191
53	0x3e474d06	0.19462976
54	0x3dbf0aab	0.09328207
55	0x3dc92bf0	0.098228335
56	0x80c40277	-1.8000641e-38
57	0x80c40277	-1.8000641e-38
58	0x80c402f2	-1.8000814e-38
59	0x80c402f2	-1.8000814e-38
60	0xbdc04211	-0.09387601
61	0xbda5d114	-0.08096519
62	0xbda13825	-0.07872037
63	0xbd80a1fc	-0.06280896
64	0x3df5091e	0.119646296
65	0x3dfdf88f	0.124009244
66	0xbd813868	-0.06309587
67	0xbd7f23d1	-0.062290017
68	0x1716cbbf	4.872478e-25
69	0x17169283	4.865254e-25
70	0x1717386b	4.886194e-25
71	0x171709ef	4.880327e-25
72	0x800fabd3	-1.439171e-39
73	0x800fab13	-1.438902e-39
74	0x800fbb07	-1.444625e-39
75	0x800fb64c	-1.442928e-39
76	0x10485b49	3.951337e-29
77	0x10485b49	3.951337e-29
78	0x10485b49	3.951337e-29
79	0x10485b49	3.951337e-29
80	0x3d7fdd2c	0.062466785
81	0x3d82832b	0.063726746
82	0x3b8e44f1	0.0043417145
83	0x3ba57963	0.005049871
84	0x00000999	3.443e-42
85	0x0000147d	7.35e-42
86	0x00001b6c	9.837e-42
87	0x0000217a	1.2009e-41
88	0xbcbef969	-0.023312287
89	0xbe083882	-0.13302806
90	0xbcc8e830	-0.024524778
91	0xbdee06e5	-0.11622409
92	0xbe415f85	-0.18884094
93	0xbe5163f0	-0.2044828
94	0xbe166e9f	-0.14690636
95	0xbe32e54d	-0.17470284
96	0x29d56845	9.477188e-14
97	0x29d56845	9.477188e-14
98	0x29d56849	9.477191e-14
99	0x29d56849	9.477191e-14
100	0x08885051	8.204085e-34
101	0x0887b067	8.166489e-34
102	0x088a2eca	8.316573e-34
103	0x08899cd0	8.282254e-34
104	0x3b5a67a7	0.0033325942
105	0x3b584042	0.0032997285
106	0x3b50f734	0.0031885626
107	0x3b4db7b6	0.0031390018
108	0x26ba1a31	1.2913442e-15
109	0x26ba1a2f	1.291344e-15
110	0x26ba1a05	1.2913395e-15
111	0x26ba1a07	1.2913397e-15
112	0x80000e28	-5.078e-42
113	0x8000056c	-1.945e-42
114	0x00000736	2.587e-42
115	0x00000485	1.621e-42
116	0xbe0c65be	-0.13710687
117	0xbe0a373e	-0.13497636
118	0xbd2c2063	-0.042023074
119	0xbd2303a5	-0.039798398
120	0x800024dd	-1.3224e-41
121	0x800020f2	-1.1819e-41
122	0x8000253e	-1.336e-41
123	0x80002534	-1.3346e-41
124	0x80000a29	-3.645e-42
125	0x80000634	-2.225e-42
126	0x8000081b	-2.908e-42
127	0x80000a32	-3.657e-42
128	0x2c023869	1.8505425e-12
129	0x2c023869	1.8505425e-12
130	0x2c023869	1.8505425e-12
131	0x2c023869	1.8505425e-12
132	0xbb02f12b	-0.0019980173
133	0x3ceb20df	0.028702198
134	0x3e4d98d4	0.2007783
135	0x3e58e03e	0.21179292
136	0x3dfa4cb2	0.1222166
137	0x3dfe2238	0.124088705
138	0x3cde874e	0.027164128
139	0x3c6c8704	0.014436487
140	0x3e4361fd	0.19080348
141	0x3e4f11af	0.2022159
142	0x3dc7a9ad	0.0974916
143	0x3deece0b	0.11660393
144	0x2e892971	6.2374e-11
145	0x2e894335	6.241977e-11
146	0x2e892676	6.236871e-11
147	0x2e893852	6.240043e-11
148	0x88d97829	-1.3088462e-33
149	0x88b83645	-1.1086856e-33
150	0x8909e6de	-1.6599328e-33
151	0x88e2f6eb	-1.365993e-33
152	0x80001448	-7.276e-42
153	0x80001448	-7.276e-42
154	0x800010a4	-5.97e-42
155	0x80001448	-7.276e-42
156	0x938da51e	-3.5756222e-27
157	0x938dd95c	-3.5807737e-27
158	0x938deade	-3.5825e-27
159	0x938e15d7	-3.5867375e-27
160	0x3e76e517	0.24110828
161	0x3e82d57b	0.25553498
162	0x3de7989f	0.11308407
163	0x3dda0a19	0.10646457
164	0x800e87a7	-1.33436e-39
165	0x800ebe23	-1.353905e-39
166	0x800e80ce	-1.331903e-39
167	0x800e804d	-1.331723e-39
168	0xbe259020	-0.1616826
169	0xbe2717f4	-0.16317731
170	0xbd8f0931	-0.06984175
171	0xbd8f13a1	-0.06986166
172	0x80002677	-1.3799e-41
173	0x80002677	-1.3799e-41
174	0x00000984	3.414e-42
175	0x00000984	3.414e-42
176	0x3d181866	0.037132643
177	0x3c6991cf	0.014255955
178	0x3e9ea4b2	0.30985028
179	0x3ea4b2d4	0.32167685
180	0xaab5dbbc	-3.230453e-13
181	0xaab5d959	-3.2302874e-13
182	0xaab5e327	-3.2309677e-13
183	0xaab5e092	-3.2307886e-13
184	0xbe826c13	-0.2547308
185	0xbe655641	-0.22396185
186	0xbe6c2002	-0.23059085
187	0xbe4a7875	-0.19772513
188	0xbc4f739f	-0.012661844
189	0xbc3be6b6	-0.01146858
190	0x3db63680	0.08897114
191	0x3dbf86da	0.09351893
192	0x00001c37	1.0122e-41
193	0x000021ec	1.2169e-41
194	0x80000f4a	-5.485e-42
195	0x80002234	-1.227e-41
196	0x301a94d9	5.62364e-10
197	0x2fa46274	2.990138e-10
198	0xb37dd71b	-5.910179e-08
199	0xb38da6a0	-6.596133e-08
200	0x3e31e9e1	0.17374374
201	0x3e37a565	0.17934187
202	0x3e2ab833	0.16671829
203	0x3e303a80	0.17209816
204	0x00000cbd	4.57e-42
205	0x00000cbd	4.57e-42
206	0x00000cbd	4.57e-42
207	0x00000cbd	4.57e-42
208	0x15372d21	3.6992156e-26
209	0x1536f24a	3.694574e-26
210	0x15374bf5	3.7016475e-26
211	0x15371493	3.6972786e-26
212	0xbb939397	-0.004503678
213	0xbba2e2cb	-0.0049708835
214	0x3e7d4842	0.24734595
215	0x3e8cdcdb	0.2751225
216	0xbe363519	-0.17793693
217	0xbe5d9444	-0.2163859
218	0xbe3283a8	-0.17433035
219	0xbe332c55	-0.1749738
220	0x3b57c9c6	0.0032926663
221	0x3b53b5e1	0.0032304453
222	0x3b514d0e	0.0031936797
223	0x3b4ca197	0.0031224245
224	0x80000e8d	-5.22e-42
225	0x800004f7	-1.781e-42
226	0x8000128c	-6.653e-42
227	0x800008f2	-3.209e-42
228	0x00ab1769	1.5712268e-38
229	0x00ab1803	1.5712484e-38
230	0x00ab1578	1.5711571e-38
231	0x00ab0f4d	1.5709359e-38
232	0x0f400ba8	9.468576e-30
233	0x0f4004c3	9.467248e-30
234	0x0f40b5d1	9.5013474e-30
235	0x0f40b66e	9.5014655e-30
236	0x80002231	-1.2266e-41
237	0x80002231	-1.2266e-41
238	0x800021b9	-1.2097e-41
239	0x800021b9	-1.2097e-41
240	0x9cc4620b	-1.2995536e-21
241	0x9bd77e2b	-3.56503e-22
242	0x1ba5bbfe	2.7418447e-22
243	0x1cc4ae1f	1.3015201e-21
244	0x3e275305	0.16340263
245	0x3e202551	0.15639235
246	0xbd345389	-0.044024978
247	0xbd90e77d	-0.07075403
248	0xbc0fab3f	-0.008768856
249	0xbc5903bb	-0.013245518
250	0x3d905d21	0.07049013
251	0x3d9387ac	0.07203612
252	0xbcdc6aaf	-0.02690634
253	0xbce14574	-0.027498938
254	0xbcb4d933	-0.022076225
255	0xbcb40107	-0.021973146

fc.bias f4 [2]
0	0xbcdc4e39	-0.026892768
1	0x3da74e4f	0.08169233

onnx::Conv_80 f4 [16, 3, 7, 7]
0	0xbe22974f	-0.15878032
1	0xbdccb7e3	-0.09996011
2	0xbda3307b	-0.07968231
3	0xbc55e6d0	-0.013055518
4	0xbc55c83f	-0.013048231
5	0x3c83b0bb	0.016075483
6	0xbb85d1e5	-0.0040838593
7	0xbe207456	-0.15669379
8	0xbdc0a968	-0.09407312
9	0xbd0f46fb	-0.0349798
10	0x3cd58219	0.026063012
11	0x3cd65aa4	0.026166268
12	0x3bda18f6	0.0066558076
13	0x3cd8f19d	0.026482398
14	0xbe0035e1	-0.12520553
15	0xbd75b639	-0.059988234
16	0xbd421ad3	-0.047388863
17	0xbd1e101b	-0.038589578
18	0x3bb685e0	0.0055701584
19	0x3bb6ff53	0.0055846362
20	0x3cad9f6f	0.021194188
21	0xbde25894	-0.11052051
22	0xbd569045	-0.05238368
23	0x3bd05599	0.0063578603
24	0x3d22acce	0.03971558
25	0x3bb1a6ec	0.00542151
26	0x3cf1cca2	0.029516522
27	0x3d460507	0.04834464
28	0xbc5691bf	-0.013096272
29	0x3dcf84e9	0.101327725
30	0x3e4075e6	0.18794975
31	0x3e071253	0.13190584
32	0x3d9ea6bb	0.07746645
33	0x3dd356ce	0.10319291
34	0x3ddaf3c1	0.106910236
35	0x3d5ad2ae	0.053423576
36	0x3df5f11c	0.120088786
37	0x3d93f2ea	0.072240666
38	0xbd6ffe7a	-0.058592297
39	0xbdec99d0	-0.11552775
40	0xbd547311	-0.05186755
41	0x3d6ba434	0.057529643
42	0x3d667c23	0.05627073
43	0x3d3a6e69	0.04551545
44	0xbda4d5d3	-0.08048596
45	0xbe0b9a69	-0.13633122
46	0xbe10adf6	-0.14128861
47	0xbdaba4ed	-0.083810665
48	0x3cf7876e	0.030215945
49	0xbcc2e5c6	-0.023791205
50	0xbb18091a	-0.0023198784
51	0xbd2b493d	-0.041817892
52	0x3ce5f212	0.02806953
53	0x3d3d168a	0.046164073
54	0x3c9c552c	0.019083582
55	0xbb116ddf	-0.0022190732
56	0xbd7da5c0	-0.06192565
57	0xbcdefea5	-0.027221033
58	0xbabce25d	-0.0014410723
59	0x3c7b6f9c	0.015346434
60	0x3d986d48	0.07442719
61	0x375040f3	1.2412888e-05
62	0x3b550818	0.0032506045
63	0xbd46e964	-0.048562422
64	0xbd1c97cd	-0.038230706
65	0xbd3948d4	-0.04523547
66	0x3bd1f306	0.0064071445
67	0xbca78f03	-0.020453935
68	0xbd48fd9e	-0.049069993
69	0xbd0653f7	-0.03279492
70	0xbdcb53df	-0.099281065
71	0xbd789322	-0.06068719
72	0x3c84fa2d	0.016232574
73	0x3d55ff58	0.052245468
74	0x3b11b1db	0.0022231254
75	0x3c50cb57	0.0127437925
76	0xbb3cacdd	-0.0028789558
77	0xbbd0b3ac	-0.006369075
78	0x3ddb561a	0.10709782
79	0x3e3e003c	0.18554777
80	0x3e2a1c22	0.16612294
81	0x3dab26a3	0.08356979
82	0x3da4a461	0.08039165
83	0x3da1807c	0.078858346
84	0x3de84bff	0.1134262
85	0x3e1d7b8c	0.1537916
86	0x3dbfdd1b	0.093683444
87	0xbc721483	-0.014775398
88	0xbdc20c18	-0.09474963
89	0xbce9cbba	-0.028539527
90	0x3d537516	0.051625334
91	0x3dacf10b	0.08444413
92	0x3d5d843b	0.054081183
93	0xbd4dfd31	-0.05029029
94	0xbddf6764	-0.10908392
95	0xbdd4a07d	-0.10382173
96	0xbd154a3a	-0.03644774
97	0x3d91022c	0.070804924
98	0x3d2bbd63	0.04192866
99	0x3dc35393	0.09537425
100	0x3d57644f	0.052585896
101	0x3ddba2c5	0.10724405
102	0x3df9cf10	0.12197697
103	0x3d60628b	0.054781478
104	0x3d5c7640	0.05382371
105	0x3c842f27	0.016135765
106	0x3d4d5449	0.05012921
107	0x3d0229e8	0.031778246
108	0x3db1c7cd	0.08680687
109	0x3dce0c4f	0.100609414
110	0x3d0a2cdf	0.0337342
111	0xbd1a678a	-0.0376964
112	0xbc62fe1d	-0.013854531
113	0x3c90e960	0.017689407
114	0xbc661aa4	-0.014044438
115	0xbc45da16	-0.0120759215
116	0xbc769961	-0.015051217
117	0xbd4a2af8	-0.049357384
118	0xbdcf4061	-0.10119701
119	0xbd7830be	-0.06059336
120	0x3b1097a6	0.0022063046
121	0x3cc39de0	0.023878992
122	0x3d0f9e28	0.03506294
123	0xbd03599a	-0.032067873
124	0xbd38c2ac	-0.04510753
125	0xbd5b29f6	-0.053506814
126	0x38d8f890	0.00010345981
127	0x3df29549	0.1184488
128	0x3e2cd30a	0.1687738
129	0x3de86cc7	0.11348873
130	0x3d10c19b	0.035340887
131	0x3d77aa22	0.060464986
132	0x3d53d524	0.05171694
133	0x3daedc64	0.0853813
134	0x3da9f325	0.08298329
135	0x3c71f1d2	0.014767127
136	0xbd198499	-0.03747997
137	0xbdcd41fd	-0.10022352
138	0xbd018567	-0.031621363
139	0x3d9ae2b6	0.07562773
140	0x3b2c180f	0.0026259457
141	0xbd2d5283	-0.042315017
142	0xbe0917eb	-0.1338803
143	0xbe537a4c	-0.20652121
144	0xbe1660f2	-0.14685419
145	0xbd6de55e	-0.05808007
146	0x3d423128	0.04741016
147	0x3d6f1975	0.058373887
148	0x3d43f2a5	0.047838826
149	0x3e1ef1a0	0.1552186
150	0x3e34a041	0.17639257
151	0xb8ba4432	-8.8818735e-05
152	0xbdf2f097	-0.11862295
153	0xbd9dacb2	-0.07698955
154	0xbd8b5f45	-0.068052806
155	0xbd9fe329	-0.07806999
156	0xbceffbe9	-0.029294925
157	0x3eaa28a3	0.33234128
158	0x3e4af81f	0.19821213
159	0x3c258513	0.010102528
160	0xbd0d8ae3	-0.03455628
161	0x3ce0a096	0.027420323
162	0xbe4bd540	-0.19905567
163	0xbe66d18d	-0.22540875
164	0x3e8714d0	0.26383066
165	0x3e9cb17c	0.3060416
166	0x3db945da	0.09046526
167	0xbc224b97	-0.009905717
168	0x3e1f4b07	0.15555964
169	0xbdc8d02d	-0.098053314
170	0xbe73fe3c	-0.23827451
171	0x3d88c848	0.066788256
172	0x3e1e3358	0.15449274
173	0x3ddc5da8	0.10760051
174	0x3cec9148	0.02887787
175	0x3da07a3c	0.07835814
176	0x3cb9fde0	0.022704065
177	0xbd2151a0	-0.039384484
178	0x3da2957a	0.07938667
179	0x3da9c1f2	0.08288945
180	0x3d9cf46c	0.07663807
181	0xbd543210	-0.051805556
182	0xbe2c196a	-0.1680657
183	0xbe173a6d	-0.14768381
184	0xbe714568	-0.23561633
185	0xbe63af67	-0.2223488
186	0xbe871907	-0.26386282
187	0xbe5452e3	-0.20734744
188	0xbe9e0c23	-0.30868635
189	0xbe89d627	-0.26921198
190	0xbe5f52b6	-0.21808895
191	0xbe2f459b	-0.17116396
192	0xbe0395f2	-0.12850168
193	0xbe5b232a	-0.21400133
194	0xbe57f16c	-0.21088189
195	0xbd4fb7d9	-0.05071244
196	0x3d2beac8	0.04197195
197	0x3dba6e86	0.09103112
198	0x3e3c4bfc	0.1838836
199	0x3e0095c2	0.12557128
200	0xbca1a203	-0.019730574
201	0xbe2440cd	-0.16040345
202	0xbde9514c	-0.11392459
203	0xbdacae76	-0.08431713
204	0xbceff331	-0.029290767
205	0x3d5feac4	0.05466725
206	0x3ea5e2f5	0.32399717
207	0x3e0496c0	0.12948132
208	0xbd87a9c2	-0.066241756
209	0xbde8342a	-0.113380745
210	0xbda1ec3e	-0.07906388
211	0xbe542038	-0.20715415
212	0xbe8b2b3f	-0.27181432
213	0x3e0eb741	0.13937093
214	0x3e4eec2d	0.20207281
215	0x3c01c39c	0.007920172
216	0xbe16c741	-0.14724447
217	0x3d065a7e	0.032801144
218	0xbe26ccb2	-0.16289023
219	0xbe7b42d0	-0.24537206
220	0x3d13a52a	0.036046185
221	0x3df85c40	0.1212697
222	0x3d23cc6b	0.03998987
223	0xbd920fe4	-0.07131937
224	0x3d75dc13	0.060024332
225	0x3d73a3c2	0.059482343
226	0x3c2764e1	0.0102169225
227	0x3d4f3281	0.050585274
228	0x3d89aa0e	0.067218885
229	0x3d8defde	0.06930517
230	0xbd47cee5	-0.048781294
231	0xbd92a4c6	-0.07160334
232	0x3d402d48	0.046918184
233	0x3d8255bf	0.06364011
234	0x3b6e66df	0.0036377234
235	0xbe031e35	-0.12804492
236	0xbd91d7a0	-0.07121205
237	0xbde1801d	-0.11010764
238	0xbe0dc78c	-0.13845652
239	0xbe048d32	-0.12944487
240	0xbdf15d3f	-0.117853634
241	0xbbf0e3aa	-0.0073513584
242	0xbd3ebfdd	-0.046569694
243	0xbd2f418b	-0.042787116
244	0xbd07f0bf	-0.033188578
245	0x3cec3386	0.028833162
246	0x3dfabd4e	0.12243138
247	0x3dfbe545	0.12299589
248	0x3e481429	0.1953894
249	0xbc0c2e22	-0.008555921
250	0xbdda139a	-0.1064827
251	0xbde9ddee	-0.11419283
252	0xbdcf5794	-0.10124126
253	0xbd1e4c6e	-0.038647108
254	0x3da40a94	0.0800983
255	0x3e8fb717	0.28069374

onnx::Conv_81 f4 [16]
0	0xbed16589	-0.40897778
1	0x3e2aaad8	0.16666734
2	0xbda1585e	-0.07878183
3	0xbf045074	-0.5168526
4	0x3e17eb9f	0.14835976
5	0x3e5bf61f	0.21480606
6	0x3e266b36	0.16251835
7	0x3d9a442e	0.075325355
8	0xbe8f01d3	-0.2793108
9	0xbee68d92	-0.45029885
10	0xbda2e209	-0.07953269
11	0x3ecfc1b4	0.4057747
12	0x3cc44951	0.023960741
13	0x3e0a50e2	0.13507417
14	0x3d301be0	0.042995334
15	0x3eaaadf4	0.3333584

onnx::Conv_83 f4 [32, 16, 3, 3]
0	0x3c93f231	0.018059822
1	0x3d2093e7	0.03920355
2	0x3d1c595b	0.038171154
3	0xbd393a11	-0.045221392
4	0xbd010485	-0.03149845
5	0xbd1222d6	-0.035677753
6	0xbcc73d21	-0.02432114
7	0xbc8dbae9	-0.01730104
8	0xbd0b95cd	-0.034078408
9	0x3c3e0f50	0.0116003305
10	0x3d46caff	0.048533436
11	0x3c741ee3	0.014899942
12	0xbd596f11	-0.053084437
13	0xbc6719de	-0.014105288
14	0x3c9a7ffd	0.018859858
15	0xbd146746	-0.0362313
16	0x3ca705a4	0.020388432
17	0x3d244ad3	0.04011042
18	0x3baaec60	0.0052161664
19	0x3c332d30	0.0109360665
20	0xbc9fd03b	-0.019508472
21	0xbd219e1e	-0.039457433
22	0xbc9d4dba	-0.019202102
23	0xbceb90c8	-0.02875556
24	0x3a93f963	0.0011289533
25	0x3cf31df2	0.029677365
26	0x3cfceb03	0.030873781
27	0xb9f7e77a	-0.00047283975
28	0x3caeb78c	0.021327756
29	0x3d0f9129	0.035050545
30	0xbc84b453	-0.016199267
31	0xbc189f8c	-0.009315383
32	0xbb965a86	-0.004588428
33	0xba802562	-0.0009776766
34	0xbc69686a	-0.014246086
35	0xbd016cf1	-0.031598035
36	0x3a2ed59a	0.00066694024
37	0x3ae3a007	0.0017366417
38	0xbb3946e7	-0.002827102
39	0x3b2387d6	0.002495279
40	0x39fbc10f	0.0004801829
41	0xbbde39b2	-0.00678178
42	0x3a42ec37	0.00074357114
43	0xba6313af	-0.0008662296
44	0xbbd66b8b	-0.006543582
45	0x3d08bd10	0.03338343
46	0x3d429486	0.047504924
47	0x3c5d3270	0.013500795
48	0x3d043117	0.03227338
49	0x3c9640e1	0.018341484
50	0xbb6bf0c5	-0.0036001664
51	0xbbdcbe5f	-0.006736561
52	0xbcd0ee69	-0.025504308
53	0xbcda49a3	-0.02664644
54	0x3bdd6efd	0.0067576156
55	0x3cbeb2d4	0.023278631
56	0x3cce71e1	0.025200786
57	0x3c0b5571	0.008504258
58	0x3c9c06a4	0.019046135
59	0x3c939192	0.01801375
60	0xbcd21cbf	-0.025648473
61	0xbcba4ae9	-0.022740798
62	0xbcd60b39	-0.026128398
63	0x3b6d0f99	0.0036172627
64	0x3bc2be96	0.00594313
65	0x3b5df2c0	0.0033866614
66	0x3a423c84	0.000740953
67	0x3b0932ba	0.0020934776
68	0x3afc9c72	0.0019272699
69	0xba1fe2ec	-0.00060991826
70	0xb89d303f	-7.49533e-05
71	0xb8d29e2e	-0.000100430436
72	0xbc9d3b92	-0.019193444
73	0x3c997ff6	0.018737774
74	0x3d16d6c6	0.036825918
75	0xbc39ae5b	-0.0113330735
76	0x3b303740	0.00268884
77	0x3c74f628	0.014951266
78	0x3c5c4bfb	0.0134458495
79	0x3c396e6a	0.011317829
80	0xbb9aca53	-0.004723826
81	0x3bd6c750	0.0065545216
82	0x3c944142	0.018097524
83	0x3ccec659	0.025241064
84	0xbb9f3678	-0.004858788
85	0xbb45dfd1	-0.003019322
86	0xbba9862d	-0.0051734657
87	0xb8d8eb56	-0.00010343517
88	0xbc355006	-0.011066442
89	0xbcc88a01	-0.024479868
90	0x3a2c9a19	0.00065842416
91	0x3d01c842	0.03168512
92	0x3d5ea88f	0.05435997
93	0xbd940e99	-0.07229347
94	0xbd843e1b	-0.06457158
95	0xbd1179b7	-0.035516467
96	0xbc845be8	-0.016157106
97	0xbc9de2fb	-0.019273272
98	0xbc5d2c5b	-0.013499345
99	0x3d5c06cc	0.05371742
100	0x3d8d5c03	0.069023155
101	0x3d9d72e5	0.0768793
102	0x3d0176e2	0.031607516
103	0x3ce05a76	0.027386885
104	0x3cc4a641	0.024005057
105	0xbd237b8f	-0.039912757
106	0xbd6286e1	-0.05530441
107	0xbd6cf6eb	-0.057852667
108	0x3c6bf212	0.014400976
109	0x3cd21aef	0.025647609
110	0x3d099935	0.033593375
111	0xbc53f992	-0.01293792
112	0x39cf3c55	0.00039527068
113	0x3c8b937b	0.017038098
114	0xbc79f1fa	-0.015255446
115	0xbbe188a2	-0.006882743
116	0x3b10c789	0.0022091588
117	0x3d9b8d22	0.07595278
118	0x3d68c2de	0.056826465
119	0x3d202bf9	0.039104436
120	0x3bab87c3	0.00523469
121	0xbcc7aa32	-0.024373148
122	0xbd82ab53	-0.06380334
123	0x3d2b54e8	0.04182902
124	0x3c7b8580	0.015351653
125	0xbc3e790b	-0.011625539
126	0x3d51ce42	0.051222093
127	0x3d60a750	0.05484706
128	0x3cdbe0b0	0.026840538
129	0xbb85c310	-0.004082091
130	0xbcca48ba	-0.024692882
131	0xbd36d72b	-0.044638794
132	0xbd0a51bf	-0.033769365
133	0xbd91f13e	-0.071260914
134	0xbdaeb715	-0.08531014
135	0x3b19a33c	0.0023443243
136	0x3c682957	0.014170012
137	0x3b729a23	0.0037018142
138	0x3bf9c4f5	0.007622356
139	0x3c4df2ef	0.012570127
140	0x3c406836	0.011743596
141	0xbcbccb5d	-0.02304619
142	0xbc185433	-0.009297418
143	0xbb7bcc34	-0.0038421275
144	0xbdac57a8	-0.084151566
145	0xbcc9e6d0	-0.024646193
146	0x3d1fa2dc	0.038973674
147	0xbd2276ff	-0.039664265
148	0x3c369076	0.011142841
149	0x3d542a65	0.051798243
150	0xbd875535	-0.06608049
151	0xbcf495bb	-0.029856553
152	0xba7703d4	-0.00094228727
153	0x3ca8aefc	0.020591252
154	0x3dbcb482	0.09214117
155	0xbd491423	-0.04909147
156	0xbd49dbfd	-0.049282063
157	0x3be5cc5c	0.007012887
158	0xbdd4b21c	-0.10385534
159	0xbd09ddad	-0.033658672
160	0x3d55c887	0.05219319
161	0xbd1c7c08	-0.038204223
162	0xbdda2784	-0.10652068
163	0xbdac13af	-0.08402192
164	0xbd3ca5ff	-0.046056744
165	0xbd39e12a	-0.04538075
166	0x3c463bb1	0.0120991925
167	0x3c65f009	0.01403428
168	0x3cd5bad1	0.026090058
169	0x3d5f7a1c	0.054559812
170	0x3cb44d63	0.022009557
171	0xbd5353db	-0.051593643
172	0xbcfcbcfc	-0.030851834
173	0xbcdbdc01	-0.026838304
174	0xbcf46395	-0.02983264
175	0xbbc510ec	-0.00601398
176	0xbc24fdb3	-0.010070252
177	0xbc200287	-0.009766228
178	0x3c17b64a	0.00925977
179	0x3baa1b83	0.005191268
180	0x3cd89be5	0.026441524
181	0x3ce180d0	0.027527243
182	0x3c8a7d16	0.016905349
183	0x3c9adf54	0.01890532
184	0x3c133241	0.008984149
185	0xbbcff859	-0.006346744
186	0x3c64ce15	0.013965149
187	0x3b855dba	0.004070011
188	0xbc46d2a8	-0.012135185
189	0xbd5468d5	-0.051857788
190	0x3cd07bf2	0.025449727
191	0x3d0932e8	0.033495814
192	0x3cd4bda2	0.02596933
193	0x3d1c6b3f	0.038188215
194	0xbc599cc7	-0.013282008
195	0xbc339ba6	-0.010962402
196	0xbd39704d	-0.045273114
197	0xbd56e7b4	-0.052467063
198	0x3cbdd7b2	0.02317414
199	0x3c9a4136	0.018829923
200	0x3c9de468	0.019273952
201	0x3c727f08	0.014800794
202	0x38d2dd16	0.00010054761
203	0x3bb9d485	0.0056710863
204	0x3cd2e27d	0.025742764
205	0x3c1b5e1f	0.009482889
206	0x3b84a1a1	0.004047588
207	0x3c150ade	0.009096829
208	0x3bfe9171	0.007768803
209	0x3b94c6b7	0.00454029
210	0x3c36b292	0.011150973
211	0xba9523cd	-0.0011378467
212	0xbc0b59c4	-0.0085052885
213	0x3c10fa76	0.008848777
214	0xbb53152b	-0.0032208662
215	0xbbc89d40	-0.0061222613
216	0xbcf386a3	-0.029727286
217	0xbd3c5eee	-0.04598897
218	0xbd83e197	-0.06439512
219	0xbced7a80	-0.028989077
220	0xbd00ee6b	-0.031477373
221	0xbdd8db08	-0.10588652
222	0xbd6826ca	-0.056677617
223	0xbc640f6e	-0.013919694
224	0xbd5e11d8	-0.054216236
225	0xbd14febe	-0.036375754
226	0xbcfd6ebc	-0.030936591
227	0xbcd3df14	-0.025863208
228	0xbc7c05d8	-0.015382253
229	0xbbeed13b	-0.007288126
230	0xbc786440	-0.01516062
231	0xbb8c6e2b	-0.004285594
232	0x3c12037c	0.008911964
233	0x3bc3c466	0.0059743403
234	0x3d440d2f	0.047864135
235	0x3c727f6f	0.01480089
236	0xbc0295a0	-0.007970244
237	0x3bd73add	0.0065682963
238	0xbb9d451b	-0.004799498
239	0xbd5b84c8	-0.053593427
240	0x3cff97f9	0.031200396
241	0x3c8215bb	0.015879503
242	0x3c9d81b7	0.019226892
243	0xbd742b5c	-0.059611663
244	0xbe27ea33	-0.16397934
245	0xbda3c4ec	-0.07996544
246	0xbd4e7959	-0.050408695
247	0xbd2de78e	-0.042457156
248	0x3d23c324	0.039981022
249	0x3dae3e4d	0.08507977
250	0x3e003efc	0.12524027
251	0x3e1f623b	0.15564816
252	0x3bccf2f0	0.0062545463
253	0x3c833607	0.016016973
254	0xb93eae22	-0.00018184682
255	0x3aa636f0	0.0012681168

onnx::Conv_84 f4 [32]
0	0xbe028b5c	-0.12748474
1	0x3e189ade	0.14902827
2	0xbcc32262	-0.023820106
3	0x3e45b940	0.19308949
4	0xbdc047a5	-0.09388665
5	0xbb63328f	-0.0034667586
6	0xbe52b6cc	-0.20577544
7	0xbdaab0b5	-0.083344854
8	0xbc086490	-0.008324757
9	0x80019307	-1.44579e-40
10	0xbb1564ec	-0.002279575
11	0xbebf7e82	-0.37401205
12	0x3e7aec5f	0.24504231
13	0xb01dc4cf	-5.739595e-10
14	0xb0e3478d	-1.653676e-09
15	0x00182675	2.217848e-39
16	0x3c0894c8	0.008336253
17	0xb9f0f5f5	-0.0004595962
18	0x808431c8	-1.2140144e-38
19	0xbeb18a3c	-0.34675777
20	0x3e66cfcc	0.22540206
21	0xba32507b	-0.00068021537
22	0xbe21aa2f	-0.15787576
23	0x3ca485f8	0.020083413
24	0xbd629a8a	-0.05532316
25	0xbdd74969	-0.10512049
26	0x3e29cd65	0.16582258
27	0x3b7eb2c0	0.0038863868
28	0x3d888312	0.06665625
29	0x3e8bf6a2	0.27336603
30	0x3ecbb1e2	0.3978415
31	0xbf10c3be	-0.5654868

onnx::Conv_86 f4 [32, 32, 3, 3]
0	0x00000000	0.0
1	0x80000000	-0.0
2	0x80000000	-0.0
3	0x00000000	0.0
4	0x00000000	0.0
5	0x00000000	0.0
6	0x80000000	-0.0
7	0x00000000	0.0
8	0x80000000	-0.0
9	0x00000000	0.0
10	0x80000000	-0.0
11	0x00000000	0.0
12	0x80000000	-0.0
13	0x80000000	-0.0
14	0x80000000	-0.0
15	0x80000000	-0.0
16	0x00000000	0.0
17	0x80000000	-0.0
18	0x00000000	0.0
19	0x00000000	0.0
20	0x80000000	-0.0
21	0x00000000	0.0
22	0x80000000	-0.0
23	0x80000000	-0.0
24	0x00000000	0.0
25	0x00000000	0.0
26	0x00000000	0.0
27	0x80000000	-0.0
28	0x80000000	-0.0
29	0x00000000	0.0
30	0x00000000	0.0
31	0x00000000	0.0
32	0x80000000	-0.0
33	0x00000000	0.0
34	0x80000000	-0.0
35	0x80000000	-0.0
36	0x80000000	-0.0
37	0x00000000	0.0
38	0x00000000	0.0
39	0x80000000	-0.0
40	0x80000000	-0.0
41	0x80000000	-0.0
42	0x80000000	-0.0
43	0x00000000	0.0
44	0x00000000	0.0
45	0x80000000	-0.0
46	0x00000000	0.0
47	0x80000000	-0.0
48	0x80000000	-0.0
49	0x00000000	0.0
50	0x80000000	-0.0
51	0x00000000	0.0
52	0x80000000	-0.0
53	0x00000000	0.0
54	0x00000000	0.0
55	0x00000000	0.0
56	0x00000000	0.0
57	0x00000000	0.0
58	0x80000000	-0.0
59	0x80000000	-0.0
60	0x80000000	-0.0
61	0x80000000	-0.0
62	0x00000000	0.0
63	0x80000000	-0.0
64	0x00000000	0.0
65	0x00000000	0.0
66	0x00000000	0.0
67	0x80000000	-0.0
68	0x00000000	0.0
69	0x80000000	-0.0
70	0x00000000	0.0
71	0x00000000	0.0
72	0x80000000	-0.0
73	0x80000000	-0.0
74	0x00000000	0.0
75	0x80000000	-0.0
76	0x80000000	-0.0
77	0x00000000	0.0
78	0x80000000	-0.0
79	0x80000000	-0.0
80	0x00000000	0.0
81	0x80000000	-0.0
82	0x00000000	0.0
83	0x00000000	0.0
84	0x00000000	0.0
85	0x80000000	-0.0
86	0x00000000	0.0
87	0x00000000	0.0
88	0x00000000	0.0
89	0x80000000	-0.0
90	0x80000000	-0.0
91	0x00000000	0.0
92	0x00000000	0.0
93	0x00000000	0.0
94	0x00000000	0.0
95	0x00000000	0.0
96	0x00000000	0.0
97	0x00000000	0.0
98	0x00000000	0.0
99	0x00000000	0.0
100	0x80000000	-0.0
101	0x80000000	-0.0
102	0x00000000	0.0
103	0x80000000	-0.0
104	0x00000000	0.0
105	0x00000000	0.0
106	0x80000000	-0.0
107	0x00000000	0.0
108	0x80000000	-0.0
109	0x80000000	-0.0
110	0x80000000	-0.0
111	0x00000000	0.0
112	0x00000000	0.0
113	0x80000000	-0.0
114	0x00000000	0.0
115	0x00000000	0.0
116	0x00000000	0.0
117	0x80000000	-0.0
118	0x00000000	0.0
119	0x80000000	-0.0
120	0x80000000	-0.0
121	0x00000000	0.0
122	0x80000000	-0.0
123	0x00000000	0.0
124	0x00000000	0.0
125	0x00000000	0.0
126	0x00000000	0.0
127	0x00000000	0.0
128	0x80000000	-0.0
129	0x00000000	0.0
130	0x00000000	0.0
131	0x80000000	-0.0
132	0x00000000	0.0
133	0x80000000	-0.0
134	0x80000000	-0.0
135	0x00000000	0.0
136	0x80000000	-0.0
137	0x80000000	-0.0
138	0x80000000	-0.0
139	0x80000000	-0.0
140	0x00000000	0.0
141	0x00000000	0.0
142	0x80000000	-0.0
143	0x00000000	0.0
144	0x80000000	-0.0
145	0x80000000	-0.0
146	0x80000000	-0.0
147	0x00000000	0.0
148	0x00000000	0.0
149	0x80000000	-0.0
150	0x80000000	-0.0
151	0x80000000	-0.0
152	0x80000000	-0.0
153	0x80000000	-0.0
154	0x00000000	0.0
155	0x80000000	-0.0
156	0x80000000	-0.0
157	0x00000000	0.0
158	0x80000000	-0.0
159	0x80000000	-0.0
160	0x80000000	-0.0
161	0x00000000	0.0
162	0x80000000	-0.0
163	0x80000000	-0.0
164	0x80000000	-0.0
165	0x80000000	-0.0
166	0x00000000	0.0
167	0x80000000	-0.0
168	0x00000000	0.0
169	0x00000000	0.0
170	0x00000000	0.0
171	0x00000000	0.0
172	0x00000000	0.0
173	0x80000000	-0.0
174	0x00000000	0.0
175	0x80000000	-0.0
176	0x00000000	0.0
177	0x80000000	-0.0
178	0x00000000	0.0
179	0x00000000	0.0
180	0x80000000	-0.0
181	0x80000000	-0.0
182	0x80000000	-0.0
183	0x00000000	0.0
184	0x80000000	-0.0
185	0x80000000	-0.0
186	0x00000000	0.0
187	0x00000000	0.0
188	0x00000000	0.0
189	0x80000000	-0.0
190	0x00000000	0.0
191	0x00000000	0.0
192	0x00000000	0.0
193	0x80000000	-0.0
194	0x00000000	0.0
195	0x80000000	-0.0
196	0x00000000	0.0
197	0x80000000	-0.0
198	0x80000000	-0.0
199	0x00000000	0.0
200	0x00000000	0.0
201	0x00000000	0.0
202	0x00000000	0.0
203	0x80000000	-0.0
204	0x80000000	-0.0
205	0x00000000	0.0
206	0x00000000	0.0
207	0x80000000	-0.0
208	0x00000000	0.0
209	0x80000000	-0.0
210	0x80000000	-0.0
211	0x80000000	-0.0
212	0x80000000	-0.0
213	0x00000000	0.0
214	0x80000000	-0.0
215	0x80000000	-0.0
216	0x80000000	-0.0
217	0x00000000	0.0
218	0x00000000	0.0
219	0x80000000	-0.0
220	0x00000000	0.0
221	0x80000000	-0.0
222	0x00000000	0.0
223	0x80000000	-0.0
224	0x80000000	-0.0
225	0x80000000	-0.0
226	0x80000000	-0.0
227	0x80000000	-0.0
228	0x00000000	0.0
229	0x80000000	-0.0
230	0x80000000	-0.0
231	0x00000000	0.0
232	0x80000000	-0.0
233	0x80000000	-0.0
234	0x00000000	0.0
235	0x00000000	0.0
236	0x80000000	-0.0
237	0x80000000	-0.0
238	0x00000000	0.0
239	0x00000000	0.0
240	0x80000000	-0.0
241	0x80000000	-0.0
242	0x80000000	-0.0
243	0x80000000	-0.0
244	0x80000000	-0.0
245	0x00000000	0.0
246	0x00000000	0.0
247	0x80000000	-0.0
248	0x00000000	0.0
249	0x80000000	-0.0
250	0x00000000	0.0
251	0x80000000	-0.0
252	0x80000000	-0.0
253	0x00000000	0.0
254	0x00000000	0.0
255	0x80000000	-0.0

onnx::Conv_87 f4 [32]
0	0x000b4f1e	1.038572e-39
1	0xb5e42bde	-1.7000091e-06
2	0xbd34ec32	-0.044170566
3	0xbde71ea7	-0.11285143
4	0x3e343fd8	0.1760248
5	0xbc803ee5	-0.01565499
6	0x3e00e10a	0.12585846
7	0x3d4e19c0	0.050317526
8	0xba004b65	-0.0004894047
9	0x3dad2e09	0.08456046
10	0x0003493b	3.01777e-40
11	0x3dbd8726	0.09254293
12	0x3e5ef244	0.21772105
13	0xbb07d4f8	-0.0020726305
14	0xb9a25402	-0.0003096164
15	0xb70bfad4	-8.343446e-06
16	0xba87e033	-0.0010366499
17	0x3b035345	0.0020038646
18	0xac0c86d8	-1.997005e-12
19	0x3c1fe838	0.009759955
20	0xb16aadb0	-3.4150212e-09
21	0xbeb1d8e2	-0.3473578
22	0xa9710f27	-5.3525892e-14
23	0x3c360180	0.011108756
24	0xabdfd9f6	-1.5905599e-12
25	0x3da91bc2	0.082572475
26	0x3df79b97	0.12090223
27	0x3df38fa8	0.11892635
28	0x3eb9f162	0.36316973
29	0xbd5ae090	-0.053436816
30	0xbc1abf24	-0.009444986
31	0x3d573fee	0.052551202

onnx::Conv_89 f4 [32, 16, 1, 1]
0	0x80000000	-0.0
1	0x80000000	-0.0
2	0x80000000	-0.0
3	0x00000000	0.0
4	0x80000000	-0.0
5	0x80000000	-0.0
6	0x00000000	0.0
7	0x80000000	-0.0
8	0x00000000	0.0
9	0x00000000	0.0
10	0x00000000	0.0
11	0x00000000	0.0
12	0x80000000	-0.0
13	0x00000000	0.0
14	0x00000000	0.0
15	0x80000000	-0.0
16	0xa7ba38e6	-5.168706e-15
17	0x03a93518	9.945117e-37
18	0x32736273	1.4166846e-08
19	0xa12f9dcf	-5.9501164e-19
20	0x0000016e	5.13e-43
21	0xafdcac3a	-4.014014e-10
22	0x18ee73e4	6.1638578e-24
23	0x80000120	-4.04e-43
24	0xaff9a6b4	-4.5411286e-10
25	0x127f63f2	8.0587004e-28
26	0xb407d66d	-1.2650862e-07
27	0x33df3ab0	1.0394922e-07
28	0x952ee0b7	-3.531629e-26
29	0xac76f8c1	-3.5096789e-12
30	0x2959d6e5	4.837007e-14
31	0x899b43b9	-3.737858e-33
32	0x3adcf48f	0.0016857552
33	0x3b04365a	0.0020173998
34	0xbb166195	-0.0022946347
35	0x3b1040ba	0.0022011236
36	0x39c490b8	0.00037491857
37	0xba3fc36f	-0.00073151937
38	0xba62045f	-0.0008621867
39	0x39f32994	0.0004637955
40	0x3aec820b	0.0018044127
41	0x3b2383ba	0.0024950341
42	0xbc640fc7	-0.013919777
43	0x3ba16909	0.0049258512
44	0xbb296ce4	-0.0025852257
45	0x3b12d1ad	0.0022402809
46	0x3b09a335	0.002100182
47	0xbad25467	-0.0016046882
48	0x3d6963f2	0.05698008
49	0xbc5ebaf2	-0.013594376
50	0xbc1fd90b	-0.009756337
51	0xbacf9116	-0.0015836086
52	0xbbd2248a	-0.006413047
53	0xbb91b744	-0.004446896
54	0xbcb36911	-0.021900686
55	0xbafc875f	-0.0019266418
56	0xbc0b8ebc	-0.008517917
57	0xbc20da00	-0.0098176
58	0x3da33813	0.0796968
59	0x3c450c32	0.012026833
60	0x3c9ed70d	0.019389654
61	0xbd1b1b47	-0.03786781
62	0x3d085b36	0.03329011
63	0x3bd6c8fe	0.006554722
64	0x3b099007	0.0020990388
65	0xbdbc590c	-0.09196672
66	0xbdf04528	-0.117319405
67	0xbbd55bac	-0.0065111723
68	0xbcdcbc04	-0.026945122
69	0x3da900a4	0.08252075
70	0xbc4632c8	-0.012097068
71	0xbcb03571	-0.021509858
72	0x3d4a2c2a	0.049358524
73	0xbd382272	-0.044954725
74	0xbd04757c	-0.032338604
75	0x3e25ff9f	0.16210793
76	0xbd201ee0	-0.039091945
77	0xbe4fff5f	-0.2031226
78	0xbd0b7ec8	-0.034056455
79	0x3d2be867	0.041969683
80	0xbbc74b91	-0.0060820063
81	0x3b842fef	0.0040340344
82	0xbb889ee5	-0.0041693323
83	0xbbf994ed	-0.0076166303
84	0x3bc11ff5	0.005893702
85	0x3bbc2d00	0.005742669
86	0x3bb874c0	0.005629152
87	0x3b3528f6	0.0027642823
88	0xbb2ac2b7	-0.0026056
89	0xbb9b994d	-0.0047484995
90	0x3b815e6f	0.003948025
91	0x3c9d5124	0.01920373
92	0x3b897148	0.0041944124
93	0x3b904577	0.004402812
94	0x3c7ecd5c	0.015551891
95	0x3b913932	0.004431867
96	0x3d53142b	0.051532906
97	0x3d67f331	0.05662841
98	0x3d5125f2	0.051061578
99	0x3c1d1d80	0.009589553
100	0xbb92a1e0	-0.0044748634
101	0x3ca15ae8	0.019696668
102	0xbcd8fd00	-0.026487827
103	0xbac3ea02	-0.0014947059
104	0x3debc62f	0.1151241
105	0xbce597d8	-0.028026506
106	0xbc3505f9	-0.011048787
107	0xbd55a23c	-0.052156672
108	0xbd25e7c2	-0.040504225
109	0x3dd16166	0.102236554
110	0x3d58bae8	0.052912623
111	0x3d45ad36	0.04826089
112	0x3c6b188b	0.014349113
113	0xbdc88a1e	-0.09791969
114	0xbacc2a52	-0.0015576577
115	0x3c23ce7e	0.009997962
116	0xbcef6ac5	-0.029225716
117	0x3d55386f	0.052055772
118	0xbcb81aa6	-0.022473644
119	0xbc39f7ef	-0.011350616
120	0x3d011271	0.031511728
121	0x3c45c649	0.012071201
122	0xbdfd26ff	-0.123609535
123	0x3daa7001	0.08322144
124	0xbce6942c	-0.028146826
125	0xbbda9964	-0.0066711176
126	0x3dca3480	0.09873295
127	0x3cec9286	0.028878462
128	0xa25da713	-3.0039533e-18
129	0x2170a24e	8.152997e-19
130	0xa70457be	-1.8366245e-15
131	0x870bf38e	-1.0528772e-34
132	0x80000035	-7.4e-44
133	0x20ac21d4	2.916032e-19
134	0x18078522	1.7515556e-24
135	0x8000005a	-1.26e-43
136	0x1b5d73eb	1.8318147e-22
137	0x8000005b	-1.28e-43
138	0x26399548	6.438708e-16
139	0x2c986950	4.331792e-12
140	0x00000021	4.6e-44
141	0x2bf44b81	1.7358199e-12
142	0x1fbb3c10	7.9296946e-20
143	0x11c2919f	3.069755e-28
144	0x3d07b141	0.033128027
145	0xbca06869	-0.019581037
146	0x3d9f89c6	0.0778995
147	0x3c8cb827	0.017177654
148	0x3b70cf92	0.0036744815
149	0x3ca179c5	0.019711385
150	0x3c1b4dba	0.009478981
151	0x3a479139	0.00076128874
152	0x3cd28ac6	0.025700938
153	0x3c6f40b4	0.014602829
154	0x3d66e6a1	0.05637229
155	0x3c9a0db8	0.01880537
156	0x3cbace8e	0.022803571
157	0x3cbf8653	0.02337948
158	0x3b45dad2	0.0030190242
159	0xbc8cb70f	-0.017177133
160	0x80000000	-0.0
161	0x00000000	0.0
162	0x80000000	-0.0
163	0x80000000	-0.0
164	0x00000000	0.0
165	0x00000000	0.0
166	0x80000000	-0.0
167	0x80000000	-0.0
168	0x00000000	0.0
169	0x80000000	-0.0
170	0x80000000	-0.0
171	0x80000000	-0.0
172	0x00000000	0.0
173	0x80000000	-0.0
174	0x80000000	-0.0
175	0x00000000	0.0
176	0xbe3ecdc6	-0.18633184
177	0xbd7546d3	-0.059881996
178	0xbe9287d0	-0.28619242
179	0xbcf17506	-0.029474746
180	0xbd12b178	-0.03581378
181	0xbd63732e	-0.055529766
182	0x3e27b253	0.16376619
183	0xbd00d2ef	-0.031451162
184	0xbd58728b	-0.05284361
185	0xbd4d7952	-0.05016453
186	0x3eecae7a	0.46226865
187	0x3e561b63	0.20908885
188	0x3e51c8f2	0.20486811
189	0x3d5d6d8b	0.054059546
190	0xbdffea94	-0.12495914
191	0xbc23b27b	-0.0099912835
192	0xbd5cc9c8	-0.05390337
193	0xbd3de5ab	-0.046361607
194	0x3d807105	0.06271557
195	0xbd68664f	-0.056738194
196	0xbd2344a3	-0.03986038
197	0x3d9dc17c	0.0770292
198	0x3d73d1d4	0.05952628
199	0xbc796a6f	-0.01522313
200	0xbdb3575f	-0.08756899
201	0xbd96eef0	-0.073697925
202	0x3e6d49bd	0.2317266
203	0x3da1d51f	0.07901978
204	0x3cf3479a	0.029697228
205	0x3d9e9423	0.077430986
206	0x3e1e8a70	0.15482497
207	0xbd040255	-0.032228786
208	0x38b86a22	8.7935725e-05
209	0xb9a41fc3	-0.00031304182
210	0x3a0e5fcc	0.0005431145
211	0x38cfd885	9.910859e-05
212	0xb40ca8d4	-1.3099935e-07
213	0x3951edcb	0.00020020378
214	0x380beb7d	3.3359498e-05
215	0x31eff36e	6.9834902e-09
216	0x39c230bb	0.0003703887
217	0x389483c8	7.081736e-05
218	0x3a48162e	0.00076326996
219	0xb9a1cb5c	-0.00030859828
220	0x3848bc89	4.7859303e-05
221	0x3a209008	0.0006124978
222	0x39937346	0.0002812391
223	0xb82ee182	-4.1694853e-05
224	0x00000000	0.0
225	0x00000000	0.0
226	0x80000000	-0.0
227	0x00000000	0.0
228	0x00000000	0.0
229	0x80000000	-0.0
230	0x80000000	-0.0
231	0x80000000	-0.0
232	0x80000000	-0.0
233	0x00000000	0.0
234	0x80000000	-0.0
235	0x80000000	-0.0
236	0x00000000	0.0
237	0x00000000	0.0
238	0x00000000	0.0
239	0x00000000	0.0
240	0x80000000	-0.0
241	0x00000000	0.0
242	0x00000000	0.0
243	0x80000000	-0.0
244	0x80000000	-0.0
245	0x00000000	0.0
246	0x80000000	-0.0
247	0x00000000	0.0
248	0x00000000	0.0
249	0x00000000	0.0
250	0x80000000	-0.0
251	0x80000000	-0.0
252	0x00000000	0.0
253	0x80000000	-0.0
254	0x00000000	0.0
255	0x00000000	0.0

onnx::Conv_90 f4 [32]
0	0x000b4f1e	1.038572e-39
1	0xb5df1d6e	-1.662336e-06
2	0xbcd5ce3a	-0.026099313
3	0xbdb81ba1	-0.08989645
4	0x3de83019	0.11337299
5	0xbd000b32	-0.031260677
6	0xbe486eb3	-0.19573478
7	0x3d0c8a4c	0.034311578
8	0xba004b65	-0.0004894047
9	0xbe233572	-0.15938357
10	0x0003493b	3.01777e-40
11	0xbeb6da6b	-0.35713515
12	0xbeadcc4a	-0.33944923
13	0xbb851fea	-0.0040626423
14	0xb9a25402	-0.0003096164
15	0xb70bfad4	-8.343446e-06
16	0xba7bee5f	-0.000961041
17	0x3b2d32ec	0.0026428057
18	0xac0c86d8	-1.997005e-12
19	0xbd429119	-0.047501657
20	0xb16aadaf	-3.415021e-09
21	0xbe146873	-0.14492969
22	0xa9710f27	-5.3525892e-14
23	0xbe83bf1a	-0.25731736
24	0xabdfd9f6	-1.5905599e-12
25	0xbe3f3949	-0.18674196
26	0x3d138bb0	0.03602189
27	0xbcf097d4	-0.029369272
28	0x3db948c4	0.09047082
29	0xbe932efa	-0.28746778
30	0x3d7db844	0.061943308
31	0x3e73d7ea	0.23812833

onnx::Conv_92 f4 [64, 32, 3, 3]
0	0x00000000	0.0
1	0x80000000	-0.0
2	0x00000000	0.0
3	0x00000000	0.0
4	0x00000000	0.0
5	0x00000000	0.0
6	0x00000000	0.0
7	0x80000000	-0.0
8	0x00000000	0.0
9	0x00000000	0.0
10	0x00000000	0.0
11	0x00000000	0.0
12	0x00000000	0.0
13	0x80000000	-0.0
14	0x80000000	-0.0
15	0x80000000	-0.0
16	0x00000000	0.0
17	0x00000000	0.0
18	0x80000000	-0.0
19	0x80000000	-0.0
20	0x00000000	0.0
21	0x80000000	-0.0
22	0x80000000	-0.0
23	0x80000000	-0.0
24	0x00000000	0.0
25	0x80000000	-0.0
26	0x00000000	0.0
27	0x80000000	-0.0
28	0x80000000	-0.0
29	0x80000000	-0.0
30	0x80000000	-0.0
31	0x80000000	-0.0
32	0x00000000	0.0
33	0x80000000	-0.0
34	0x00000000	0.0
35	0x00000000	0.0
36	0x80000000	-0.0
37	0x80000000	-0.0
38	0x00000000	0.0
39	0x80000000	-0.0
40	0x80000000	-0.0
41	0x80000000	-0.0
42	0x00000000	0.0
43	0x00000000	0.0
44	0x00000000	0.0
45	0x00000000	0.0
46	0x00000000	0.0
47	0x80000000	-0.0
48	0x80000000	-0.0
49	0x00000000	0.0
50	0x80000000	-0.0
51	0x00000000	0.0
52	0x80000000	-0.0
53	0x00000000	0.0
54	0x00000000	0.0
55	0x00000000	0.0
56	0x00000000	0.0
57	0x80000000	-0.0
58	0x00000000	0.0
59	0x00000000	0.0
60	0x00000000	0.0
61	0x00000000	0.0
62	0x80000000	-0.0
63	0x00000000	0.0
64	0x00000000	0.0
65	0x80000000	-0.0
66	0x80000000	-0.0
67	0x80000000	-0.0
68	0x80000000	-0.0
69	0x00000000	0.0
70	0x80000000	-0.0
71	0x80000000	-0.0
72	0x00000000	0.0
73	0x80000000	-0.0
74	0x00000000	0.0
75	0x00000000	0.0
76	0x80000000	-0.0
77	0x00000000	0.0
78	0x00000000	0.0
79	0x80000000	-0.0
80	0x00000000	0.0
81	0x00000000	0.0
82	0x00000000	0.0
83	0x80000000	-0.0
84	0x80000000	-0.0
85	0x00000000	0.0
86	0x80000000	-0.0
87	0x00000000	0.0
88	0x80000000	-0.0
89	0x80000000	-0.0
90	0x80000000	-0.0
91	0x80000000	-0.0
92	0x00000000	0.0
93	0x80000000	-0.0
94	0x80000000	-0.0
95	0x00000000	0.0
96	0x80000000	-0.0
97	0x00000000	0.0
98	0x00000000	0.0
99	0x80000000	-0.0
100	0x80000000	-0.0
101	0x00000000	0.0
102	0x00000000	0.0
103	0x80000000	-0.0
104	0x00000000	0.0
105	0x80000000	-0.0
106	0x80000000	-0.0
107	0x80000000	-0.0
108	0x00000000	0.0
109	0x80000000	-0.0
110	0x80000000	-0.0
111	0x80000000	-0.0
112	0x00000000	0.0
113	0x80000000	-0.0
114	0x80000000	-0.0
115	0x80000000	-0.0
116	0x00000000	0.0
117	0x80000000	-0.0
118	0x00000000	0.0
119	0x80000000	-0.0
120	0x00000000	0.0
121	0x80000000	-0.0
122	0x80000000	-0.0
123	0x00000000	0.0
124	0x00000000	0.0
125	0x80000000	-0.0
126	0x00000000	0.0
127	0x00000000	0.0
128	0x00000000	0.0
129	0x80000000	-0.0
130	0x00000000	0.0
131	0x00000000	0.0
132	0x80000000	-0.0
133	0x80000000	-0.0
134	0x00000000	0.0
135	0x00000000	0.0
136	0x80000000	-0.0
137	0x80000000	-0.0
138	0x80000000	-0.0
139	0x00000000	0.0
140	0x00000000	0.0
141	0x00000000	0.0
142	0x80000000	-0.0
143	0x00000000	0.0
144	0x80000000	-0.0
145	0x00000000	0.0
146	0x00000000	0.0
147	0x80000000	-0.0
148	0x80000000	-0.0
149	0x80000000	-0.0
150	0x00000000	0.0
151	0x80000000	-0.0
152	0x00000000	0.0
153	0x80000000	-0.0
154	0x00000000	0.0
155	0x80000000	-0.0
156	0x00000000	0.0
157	0x00000000	0.0
158	0x80000000	-0.0
159	0x00000000	0.0
160	0x00000000	0.0
161	0x80000000	-0.0
162	0x00000000	0.0
163	0x80000000	-0.0
164	0x80000000	-0.0
165	0x80000000	-0.0
166	0x80000000	-0.0
167	0x80000000	-0.0
168	0x80000000	-0.0
169	0x80000000	-0.0
170	0x00000000	0.0
171	0x00000000	0.0
172	0x00000000	0.0
173	0x80000000	-0.0
174	0x80000000	-0.0
175	0x80000000	-0.0
176	0x80000000	-0.0
177	0x80000000	-0.0
178	0x00000000	0.0
179	0x00000000	0.0
180	0x80000000	-0.0
181	0x00000000	0.0
182	0x00000000	0.0
183	0x80000000	-0.0
184	0x00000000	0.0
185	0x80000000	-0.0
186	0x00000000	0.0
187	0x00000000	0.0
188	0x00000000	0.0
189	0x80000000	-0.0
190	0x00000000	0.0
191	0x00000000	0.0
192	0x00000000	0.0
193	0x00000000	0.0
194	0x80000000	-0.0
195	0x80000000	-0.0
196	0x80000000	-0.0
197	0x80000000	-0.0
198	0x80000000	-0.0
199	0x00000000	0.0
200	0x00000000	0.0
201	0x00000000	0.0
202	0x00000000	0.0
203	0x00000000	0.0
204	0x80000000	-0.0
205	0x00000000	0.0
206	0x80000000	-0.0
207	0x80000000	-0.0
208	0x00000000	0.0
209	0x00000000	0.0
210	0x00000000	0.0
211	0x00000000	0.0
212	0x00000000	0.0
213	0x00000000	0.0
214	0x00000000	0.0
215	0x00000000	0.0
216	0x00000000	0.0
217	0x00000000	0.0
218	0x80000000	-0.0
219	0x80000000	-0.0
220	0x00000000	0.0
221	0x00000000	0.0
222	0x00000000	0.0
223	0x80000000	-0.0
224	0x80000000	-0.0
225	0x00000000	0.0
226	0x00000000	0.0
227	0x00000000	0.0
228	0x00000000	0.0
229	0x80000000	-0.0
230	0x00000000	0.0
231	0x80000000	-0.0
232	0x80000000	-0.0
233	0x80000000	-0.0
234	0x80000000	-0.0
235	0x80000000	-0.0
236	0x80000000	-0.0
237	0x80000000	-0.0
238	0x80000000	-0.0
239	0x00000000	0.0
240	0x80000000	-0.0
241	0x00000000	0.0
242	0x80000000	-0.0
243	0x80000000	-0.0
244	0x00000000	0.0
245	0x00000000	0.0
246	0x00000000	0.0
247	0x80000000	-0.0
248	0x00000000	0.0
249	0x00000000	0.0
250	0x00000000	0.0
251	0x80000000	-0.0
252	0x80000000	-0.0
253	0x00000000	0.0
254	0x00000000	0.0
255	0x00000000	0.0

onnx::Conv_93 f4 [64]
0	0x80003ee9	-2.2568e-41
1	0x0000759f	4.2194e-41
2	0x8000bb4b	-6.7188e-41
3	0x8000d160	-7.511e-41
4	0xba2198a4	-0.0006164408
5	0xaf6b7edd	-2.1418196e-10
6	0xb4ce7b05	-3.8459999e-07
7	0x98b2263c	-4.605053e-24
8	0xbd3a4a36	-0.04548093
9	0x80007288	-4.1086e-41
10	0x00004ffb	2.8692e-41
11	0x3d219104	0.03944494
12	0x000065e7	3.6556e-41
13	0x0000af1c	6.2817e-41
14	0x0000ca13	7.249e-41
15	0x80003ecc	-2.2527e-41
16	0x3d8afcfe	0.06786536
17	0x800089d7	-4.9448e-41
18	0x3bab9284	0.005235972
19	0x00000a83	3.771e-42
20	0x000003a6	1.309e-42
21	0xbe1a52eb	-0.15070693
22	0x00004641	2.5202e-41
23	0x00006ee9	3.9787e-41
24	0x00009991	5.5089e-41
25	0x0000714c	4.0643e-41
26	0x00009e0b	5.6695e-41
27	0xb491397f	-2.7050189e-07
28	0x80006009	-3.4451e-41
29	0x8ba094fb	-6.185392e-32
30	0x0001000b	9.1851e-41
31	0xbe19ff68	-0.15038836
32	0xbdc80850	-0.097672105
33	0x000019b2	9.218e-42
34	0x000035a5	1.9244e-41
35	0x0000757f	4.215e-41
36	0x80001da8	-1.0639e-41
37	0x80000673	-2.314e-42
38	0x00000df3	5.004e-42
39	0x800082c7	-4.6914e-41
40	0x0000a2f6	5.846e-41
41	0xbe63327d	-0.22187229
42	0x8000072f	-2.577e-42
43	0x000029ba	1.4969e-41
44	0x80001863	-8.748e-42
45	0x000010f8	6.087e-42
46	0xbe0b4740	-0.13601398
47	0xbdc75602	-0.097332016
48	0x8000122d	-6.52e-42
49	0x00004c5c	2.7393e-41
50	0x800085b6	-4.7966e-41
51	0x8000dee3	-7.9957e-41
52	0x80000a4f	-3.698e-42
53	0xb66803b1	-3.4572843e-06
54	0x8000cf57	-7.438e-41
55	0x80004831	-2.5897e-41
56	0x80003d79	-2.2052e-41
57	0x0000519c	2.9276e-41
58	0x800034dc	-1.8962e-41
59	0xbe1ae707	-0.15127192
60	0x80005352	-2.989e-41
61	0x00002b03	1.543e-41
62	0x0000a7a7	6.0142e-41
63	0x3c960e5e	0.018317398

onnx::Conv_95 f4 [64, 64, 3, 3]
0	0x80068761	-5.99578e-40
1	0x8008196d	-7.43805e-40
2	0x8016d058	-2.09512e-39
3	0x8009beab	-8.94918e-40
4	0x80079a8b	-6.98288e-40
5	0x80149581	-1.890342e-39
6	0x80059b61	-5.14917e-40
7	0x8008f5ec	-8.22904e-40
8	0x8013695f	-1.782674e-39
9	0x8021a1ae	-3.088571e-39
10	0x80171d3c	-2.122704e-39
11	0x801ec1c9	-2.824582e-39
12	0x800f8500	-1.425244e-39
13	0x8004d99d	-4.45407e-40
14	0x800fb3ce	-1.442034e-39
15	0x800f4712	-1.403028e-39
16	0x8010c0eb	-1.538574e-39
17	0x80124bfb	-1.680296e-39
18	0x0023ff8e	3.305918e-39
19	0x000f992f	1.432484e-39
20	0x001606a9	2.02277e-39
21	0x000ae3df	1.0001e-39
22	0x8001b21c	-1.55729e-40
23	0x0000d4e7	7.6375e-41
24	0x0017b2e3	2.176389e-39
25	0x000d1ee0	1.204937e-39
26	0x0013f244	1.831783e-39
27	0x8003a5c8	-3.34978e-40
28	0x000537fe	4.79264e-40
29	0x8002d4f3	-2.60063e-40
30	0x800477ef	-4.10366e-40
31	0x000045a1	2.4978e-41
32	0x80064884	-5.77027e-40
33	0x8007d36a	-7.1869e-40
34	0x80055a6c	-4.91615e-40
35	0x8003190a	-2.84489e-40
36	0x374414ff	1.1687399e-05
37	0x356578f6	8.548517e-07
38	0x35ac9c36	1.2860462e-06
39	0x3637c158	2.7381666e-06
40	0x367134f8	3.594263e-06
41	0x365095cb	3.1081606e-06
42	0x35792742	9.2816856e-07
43	0x368b35d9	4.1487915e-06
44	0x36ba387d	5.549808e-06
45	0x800378f5	-3.18898e-40
46	0x00040a28	3.70985e-40
47	0x8004b4b6	-4.32169e-40
48	0x000228a3	1.98249e-40
49	0x0004f038	4.53516e-40
50	0x0003600b	3.0996e-40
51	0x0002327b	2.0178e-40
52	0x800114a6	-9.9243e-41
53	0x80036ac4	-3.13807e-40
54	0x0002403b	2.06713e-40
55	0x0001222d	1.04095e-40
56	0x800253a5	-2.13677e-40
57	0x800178bf	-1.35151e-40
58	0x0000efb0	8.5984e-41
59	0x00023a58	2.04601e-40
60	0x000087e7	4.8753e-41
61	0x00014ad2	1.18676e-40
62	0x80001977	-9.135e-42
63	0x981b1b84	-2.0047172e-24
64	0x97e24695	-1.4622725e-24
65	0x982f1deb	-2.2633325e-24
66	0x1797ee41	9.81829e-25
67	0x8df5ab13	-1.5140475e-30
68	0x1706054a	4.330441e-25
69	0x18047f97	1.7125017e-24
70	0x97f36bf9	-1.5730763e-24
71	0x17371354	5.9154885e-25
72	0xbb781765	-0.003785574
73	0xbe3e0f50	-0.18560529
74	0xbe48651f	-0.19569825
75	0xbe999e23	-0.3000346
76	0xbf364157	-0.7119345
77	0xbeb66fd7	-0.35632202
78	0xbc94f130	-0.018181413
79	0xbda68ef3	-0.08132734
80	0xbd57beb2	-0.052672096
81	0x000c8bb2	1.152139e-39
82	0x0009d26a	9.02002e-40
83	0x00049aea	4.22915e-40
84	0x8000d0c7	-7.4895e-41
85	0x800cf514	-1.189943e-39
86	0x800bcade	-1.082965e-39
87	0x000c56f4	1.133219e-39
88	0x80002672	-1.3792e-41
89	0x0006f34a	6.38289e-40
90	0x806ce119	-9.998983e-39
91	0x8053551b	-7.652876e-39
92	0x805c8f39	-8.500244e-39
93	0x8027a17d	-3.639515e-39
94	0x0004b82d	4.33412e-40
95	0x8014282a	-1.851118e-39
96	0x8046cd26	-6.502078e-39
97	0x8024e5ba	-3.388488e-39
98	0x80316a63	-4.538104e-39
99	0xbd09ec47	-0.033672597
100	0xbe6e46fd	-0.23269267
101	0xbe39d086	-0.18145952
102	0x3dada9d9	0.084796615
103	0x3c1fd27b	0.009754772
104	0x3d93fa3c	0.07225463
105	0x3da5cffa	0.08096309
106	0xbdc23010	-0.094818234
107	0xbcd1e9a5	-0.025624106
108	0x809f034b	-1.4603025e-38
109	0x8087d8a3	-1.2475507e-38
110	0x8091128a	-1.3322798e-38
111	0x80371903	-5.059925e-39
112	0x800ae433	-1.000217e-39
113	0x802a30b2	-3.87456e-39
114	0x805b7739	-8.399799e-39
115	0x803cebaa	-5.59467e-39
116	0x804b71a2	-6.928426e-39
117	0x80a621fa	-1.5256881e-38
118	0x8070e90e	-1.036918e-38
119	0x8079c065	-1.1181113e-38
120	0x8046f262	-6.515435e-39
121	0x00070e68	6.48016e-40
122	0x801fc779	-2.918458e-39
123	0x8077c18f	-1.099786e-38
124	0x80325e25	-4.625548e-39
125	0x80487efc	-6.657709e-39
126	0x80c437c7	-1.8019766e-38
127	0x808590fc	-1.2266132e-38
128	0x8093c458	-1.3570253e-38
129	0x80490d1a	-6.708691e-39
130	0x0011210f	1.573063e-39
131	0x801b2c49	-2.495445e-39
132	0x8088af07	-1.2552415e-38
133	0x803938e7	-5.255036e-39
134	0x805179b0	-7.482328e-39
135	0x003c0529	5.511981e-39
136	0x00156326	1.964113e-39
137	0x001fe36a	2.928481e-39
138	0x0014c409	1.907034e-39
139	0x8002ca1d	-2.56176e-40
140	0x0000b0b7	6.3393e-41
141	0x002cc828	4.112564e-39
142	0x800b659d	-1.046642e-39
143	0x00046325	4.02908e-40
144	0xbc91ee3a	-0.01781379
145	0xbc90add1	-0.017661007
146	0xbcf6f549	-0.030146258
147	0xbdc07042	-0.093964115
148	0xbd6de94e	-0.058083825
149	0xbe03ff03	-0.12890248
150	0xbe571d9c	-0.21007389
151	0xbe63355a	-0.22188321
152	0xbdfad376	-0.12247364
153	0x80016d4f	-1.31048e-40
154	0x000b0363	1.011405e-39
155	0x800df276	-1.28084e-39
156	0x0001eeff	1.77571e-40
157	0x000a71cd	9.59179e-40
158	0x00008ef2	5.1279e-41
159	0x0007e146	7.23661e-40
160	0x000ea06c	1.343245e-39
161	0x0002371a	2.03438e-40
162	0x3ee8009e	0.4531297
163	0x3dcfc313	0.10144629
164	0x3e16b9be	0.14719293
165	0x3e6a052e	0.22853538
166	0xbc3f5857	-0.011678777
167	0xbe39df3c	-0.18151563
168	0xbd2c7708	-0.042105705
169	0x3cf21f33	0.029555893
170	0xbe52819c	-0.20557255
171	0x00129e18	1.709752e-39
172	0x000dcc12	1.267068e-39
173	0x000b7236	1.051162e-39
174	0x000f0c55	1.381956e-39
175	0x8003a2de	-3.33932e-40
176	0x000976bb	8.69112e-40
177	0x0021af60	3.093484e-39
178	0x00175dea	2.145906e-39
179	0x001c3e21	2.593682e-39
180	0x800322f0	-2.8804e-40
181	0x8007e0c7	-7.23483e-40
182	0x8005eaa2	-5.43348e-40
183	0x800aa2c0	-9.76739e-40
184	0x80023d5f	-2.05687e-40
185	0x80018ecd	-1.43063e-40
186	0x800aa564	-9.77686e-40
187	0x00055880	4.90925e-40
188	0x80013b50	-1.13113e-40
189	0xbdb78c5e	-0.0896232
190	0xbda57e7a	-0.08080764
191	0xbe026972	-0.12735537
192	0xbe30e246	-0.17273816
193	0xbcc8e5d7	-0.024523659
194	0xbd1de6ac	-0.038550064
195	0x3e07b588	0.13252842
196	0x3e49cd3e	0.197072
197	0x3e621f28	0.22082198
198	0x801ee4a8	-2.837091e-39
199	0x801effb7	-2.846798e-39
200	0x8018ba80	-2.270956e-39
201	0x80179950	-2.167215e-39
202	0x8013dc7c	-1.82397e-39
203	0x80153c19	-1.950104e-39
204	0x801147f1	-1.587011e-39
205	0x800f42e4	-1.401528e-39
206	0x800f1262	-1.384127e-39
207	0x80e7383f	-2.1234177e-38
208	0x80a4b733	-1.5126741e-38
209	0x80b9207c	-1.700122e-38
210	0x804f4492	-7.279603e-39
211	0x0005dda7	5.38691e-40
212	0x802baa1a	-4.009947e-39
213	0x809783dd	-1.3914464e-38
214	0x8052fcaa	-7.62115e-39
215	0x80602ba8	-8.831869e-39
216	0x80ac88b0	-1.584474e-38
217	0x80851f30	-1.2225309e-38
218	0x8094b3fa	-1.3656217e-38
219	0x80419d4b	-6.025733e-39
220	0x80076d55	-6.8207e-40
221	0x80220d34	-3.127143e-39
222	0x808307ef	-1.2033296e-38
223	0x803e0598	-5.695807e-39
224	0x80544558	-7.739058e-39
225	0x80179f33	-2.169326e-39
226	0x800d8e40	-1.244891e-39
227	0x801492dd	-1.889395e-39
228	0x8008f15b	-8.21266e-40
229	0x00080be6	7.38952e-40
230	0x80014374	-1.16033e-40
231	0x800afd56	-1.009235e-39
232	0x800bff81	-1.101848e-39
233	0x8009a47d	-8.85527e-40
234	0x80b08355	-1.621016e-38
235	0x80956fb0	-1.3723555e-38
236	0x80a4f5a0	-1.5149135e-38
237	0x802e9c6c	-4.280546e-39
238	0x0005e44f	5.41079e-40
239	0x80225953	-3.15445e-39
240	0x8055859b	-7.853946e-39
241	0x80319b56	-4.555663e-39
242	0x803e1c24	-5.703896e-39
243	0x0000824b	4.674e-41
244	0x80008ef2	-5.1279e-41
245	0x800251b8	-2.12986e-40
246	0x80012cd9	-1.07924e-40
247	0x8000bdea	-6.8128e-41
248	0x00023bf1	2.05174e-40
249	0x800149ab	-1.18263e-40
250	0x8001ba6b	-1.5871e-40
251	0x00003836	2.0165e-41
252	0x80200592	-2.940734e-39
253	0x800a985b	-9.7301e-40
254	0x801d4506	-2.68799e-39
255	0x800fcda8	-1.451308e-39
